…
unexpected key in source state_dict: mask_token, norm.weight, norm.bias, stages.0.blocks.1.attn_mask, stages.1.blocks.1.attn_mask, stages.2.blocks.1.attn_mask, stages.2.blocks.3.attn_mask, stages.2.blocks.5.attn_mask, stages.2.blocks.7.attn_mask, stages.2.blocks.9.attn_mask, stages.2.blocks.11.attn_mask, stages.2.blocks.13.attn_mask, stages.2.blocks.15.attn_mask, stages.2.blocks.17.attn_mask

missing keys in source state_dict: norm0.weight, norm0.bias, norm1.weight, norm1.bias, norm2.weight, norm2.bias, norm3.weight, norm3.bias

2025-05-26 01:44:46,979 - mmseg - INFO - DTP(
  (backbone): SwinTransformer(
    (patch_embed): PatchEmbed(
      (adap_padding): AdaptivePadding()
      (projection): Conv2d(3, 128, kernel_size=(4, 4), stride=(4, 4))
      (norm): LayerNorm((128,), eps=1e-05, elementwise_affine=True)
    )
    (drop_after_pos): Dropout(p=0.0, inplace=False)
    (stages): ModuleList(
      (0): SwinBlockSequence(
        (blocks): ModuleList(
          (0-1): 2 x SwinBlock(
            (norm1): LayerNorm((128,), eps=1e-05, elementwise_affine=True)
            (attn): ShiftWindowMSA(
              (w_msa): WindowMSA(
                (qkv): Linear(in_features=128, out_features=384, bias=True)
                (attn_drop): Dropout(p=0.0, inplace=False)
                (proj): Linear(in_features=128, out_features=128, bias=True)
                (proj_drop): Dropout(p=0.0, inplace=False)
                (softmax): Softmax(dim=-1)
              )
              (drop): DropPath()
            )
            (norm2): LayerNorm((128,), eps=1e-05, elementwise_affine=True)
            (ffn): FFN(
              (activate): GELU(approximate='none')
              (layers): Sequential(
                (0): Sequential(
                  (0): Linear(in_features=128, out_features=512, bias=True)
                  (1): GELU(approximate='none')
                  (2): Dropout(p=0.0, inplace=False)
                )
                (1): Linear(in_features=512, out_features=128, bias=True)
                (2): Dropout(p=0.0, inplace=False)
              )
              (dropout_layer): DropPath()
            )
          )
        )
        (downsample): PatchMerging(
          (adap_padding): AdaptivePadding()
          (sampler): Unfold(kernel_size=(2, 2), dilation=(1, 1), padding=(0, 0), stride=(2, 2))
          (norm): LayerNorm((512,), eps=1e-05, elementwise_affine=True)
          (reduction): Linear(in_features=512, out_features=256, bias=False)
        )
      )
      (1): SwinBlockSequence(
        (blocks): ModuleList(
          (0-1): 2 x SwinBlock(
            (norm1): LayerNorm((256,), eps=1e-05, elementwise_affine=True)
            (attn): ShiftWindowMSA(
              (w_msa): WindowMSA(
                (qkv): Linear(in_features=256, out_features=768, bias=True)
                (attn_drop): Dropout(p=0.0, inplace=False)
                (proj): Linear(in_features=256, out_features=256, bias=True)
                (proj_drop): Dropout(p=0.0, inplace=False)
                (softmax): Softmax(dim=-1)
              )
              (drop): DropPath()
            )
            (norm2): LayerNorm((256,), eps=1e-05, elementwise_affine=True)
            (ffn): FFN(
              (activate): GELU(approximate='none')
              (layers): Sequential(
                (0): Sequential(
                  (0): Linear(in_features=256, out_features=1024, bias=True)
                  (1): GELU(approximate='none')
                  (2): Dropout(p=0.0, inplace=False)
                )
                (1): Linear(in_features=1024, out_features=256, bias=True)
                (2): Dropout(p=0.0, inplace=False)
              )
              (dropout_layer): DropPath()
            )
          )
        )
        (downsample): PatchMerging(
          (adap_padding): AdaptivePadding()
          (sampler): Unfold(kernel_size=(2, 2), dilation=(1, 1), padding=(0, 0), stride=(2, 2))
          (norm): LayerNorm((1024,), eps=1e-05, elementwise_affine=True)
          (reduction): Linear(in_features=1024, out_features=512, bias=False)
        )
      )
      (2): SwinBlockSequence(
        (blocks): ModuleList(
          (0-17): 18 x SwinBlock(
            (norm1): LayerNorm((512,), eps=1e-05, elementwise_affine=True)
            (attn): ShiftWindowMSA(
              (w_msa): WindowMSA(
                (qkv): Linear(in_features=512, out_features=1536, bias=True)
                (attn_drop): Dropout(p=0.0, inplace=False)
                (proj): Linear(in_features=512, out_features=512, bias=True)
                (proj_drop): Dropout(p=0.0, inplace=False)
                (softmax): Softmax(dim=-1)
              )
              (drop): DropPath()
            )
            (norm2): LayerNorm((512,), eps=1e-05, elementwise_affine=True)
            (ffn): FFN(
              (activate): GELU(approximate='none')
              (layers): Sequential(
                (0): Sequential(
                  (0): Linear(in_features=512, out_features=2048, bias=True)
                  (1): GELU(approximate='none')
                  (2): Dropout(p=0.0, inplace=False)
                )
                (1): Linear(in_features=2048, out_features=512, bias=True)
                (2): Dropout(p=0.0, inplace=False)
              )
              (dropout_layer): DropPath()
            )
          )
        )
        (downsample): PatchMerging(
          (adap_padding): AdaptivePadding()
          (sampler): Unfold(kernel_size=(2, 2), dilation=(1, 1), padding=(0, 0), stride=(2, 2))
          (norm): LayerNorm((2048,), eps=1e-05, elementwise_affine=True)
          (reduction): Linear(in_features=2048, out_features=1024, bias=False)
        )
      )
      (3): SwinBlockSequence(
        (blocks): ModuleList(
          (0-1): 2 x SwinBlock(
            (norm1): LayerNorm((1024,), eps=1e-05, elementwise_affine=True)
            (attn): ShiftWindowMSA(
              (w_msa): WindowMSA(
                (qkv): Linear(in_features=1024, out_features=3072, bias=True)
                (attn_drop): Dropout(p=0.0, inplace=False)
                (proj): Linear(in_features=1024, out_features=1024, bias=True)
                (proj_drop): Dropout(p=0.0, inplace=False)
                (softmax): Softmax(dim=-1)
              )
              (drop): DropPath()
            )
            (norm2): LayerNorm((1024,), eps=1e-05, elementwise_affine=True)
            (ffn): FFN(
              (activate): GELU(approximate='none')
              (layers): Sequential(
                (0): Sequential(
                  (0): Linear(in_features=1024, out_features=4096, bias=True)
                  (1): GELU(approximate='none')
                  (2): Dropout(p=0.0, inplace=False)
                )
                (1): Linear(in_features=4096, out_features=1024, bias=True)
                (2): Dropout(p=0.0, inplace=False)
              )
              (dropout_layer): DropPath()
            )
          )
        )
      )
    )
    (norm0): LayerNorm((128,), eps=1e-05, elementwise_affine=True)
    (norm1): LayerNorm((256,), eps=1e-05, elementwise_affine=True)
    (norm2): LayerNorm((512,), eps=1e-05, elementwise_affine=True)
    (norm3): LayerNorm((1024,), eps=1e-05, elementwise_affine=True)
  )
  init_cfg={'type': 'Pretrained', 'checkpoint': 'checkpoints/simmim_pretrain__swin_base__img192_window6__800ep.pth'}
  (decode_head): IAParser(
    input_transform=multiple_select, ignore_index=255, align_corners=False
    (loss_decode): CrossEntropyLoss(avg_non_ignore=True)
    (conv_seg): Conv2d(512, 19, kernel_size=(1, 1), stride=(1, 1))
    (dropout): Dropout2d(p=0.1, inplace=False)
    (psp_modules): PPM(
      (0): Sequential(
        (0): AdaptiveAvgPool2d(output_size=1)
        (1): ConvModule(
          (conv): Conv2d(1024, 512, kernel_size=(1, 1), stride=(1, 1), bias=False)
          (bn): SyncBatchNorm(512, eps=1e-05, momentum=0.1, affine=True, track_running_stats=True)
          (activate): ReLU(inplace=True)
        )
      )
      (1): Sequential(
        (0): AdaptiveAvgPool2d(output_size=2)
        (1): ConvModule(
          (conv): Conv2d(1024, 512, kernel_size=(1, 1), stride=(1, 1), bias=False)
          (bn): SyncBatchNorm(512, eps=1e-05, momentum=0.1, affine=True, track_running_stats=True)
          (activate): ReLU(inplace=True)
        )
      )
      (2): Sequential(
        (0): AdaptiveAvgPool2d(output_size=3)
        (1): ConvModule(
          (conv): Conv2d(1024, 512, kernel_size=(1, 1), stride=(1, 1), bias=False)
          (bn): SyncBatchNorm(512, eps=1e-05, momentum=0.1, affine=True, track_running_stats=True)
          (activate): ReLU(inplace=True)
        )
      )
      (3): Sequential(
        (0): AdaptiveAvgPool2d(output_size=6)
        (1): ConvModule(
          (conv): Conv2d(1024, 512, kernel_size=(1, 1), stride=(1, 1), bias=False)
          (bn): SyncBatchNorm(512, eps=1e-05, momentum=0.1, affine=True, track_running_stats=True)
          (activate): ReLU(inplace=True)
        )
      )
    )
    (bottleneck): ConvModule(
      (conv): Conv2d(3072, 512, kernel_size=(3, 3), stride=(1, 1), padding=(1, 1), bias=False)
      (bn): SyncBatchNorm(512, eps=1e-05, momentum=0.1, affine=True, track_running_stats=True)
      (activate): ReLU(inplace=True)
    )
    (lateral_convs): ModuleList(
      (0): ConvModule(
        (conv): Conv2d(128, 512, kernel_size=(1, 1), stride=(1, 1), bias=False)
        (bn): SyncBatchNorm(512, eps=1e-05, momentum=0.1, affine=True, track_running_stats=True)
        (activate): ReLU()
      )
      (1): ConvModule(
        (conv): Conv2d(256, 512, kernel_size=(1, 1), stride=(1, 1), bias=False)
        (bn): SyncBatchNorm(512, eps=1e-05, momentum=0.1, affine=True, track_running_stats=True)
        (activate): ReLU()
      )
      (2): ConvModule(
        (conv): Conv2d(512, 512, kernel_size=(1, 1), stride=(1, 1), bias=False)
        (bn): SyncBatchNorm(512, eps=1e-05, momentum=0.1, affine=True, track_running_stats=True)
        (activate): ReLU()
      )
    )
    (fpn_convs): ModuleList(
      (0-2): 3 x ConvModule(
        (conv): Conv2d(512, 512, kernel_size=(3, 3), stride=(1, 1), padding=(1, 1), bias=False)
        (bn): SyncBatchNorm(512, eps=1e-05, momentum=0.1, affine=True, track_running_stats=True)
        (activate): ReLU()
      )
    )
    (fpn_bottleneck): ConvModule(
      (conv): Conv2d(2048, 512, kernel_size=(3, 3), stride=(1, 1), padding=(1, 1), bias=False)
      (bn): SyncBatchNorm(512, eps=1e-05, momentum=0.1, affine=True, track_running_stats=True)
      (activate): ReLU(inplace=True)
    )
    (ill_transform): Sequential(
      (0): ConvModule(
        (conv): Conv2d(128, 64, kernel_size=(3, 3), stride=(1, 1), padding=(1, 1), bias=False)
        (bn): SyncBatchNorm(64, eps=1e-05, momentum=0.1, affine=True, track_running_stats=True)
        (activate): ReLU(inplace=True)
      )
      (1): ConvModule(
        (conv): Conv2d(64, 64, kernel_size=(3, 3), stride=(1, 1), padding=(1, 1), bias=False)
        (bn): SyncBatchNorm(64, eps=1e-05, momentum=0.1, affine=True, track_running_stats=True)
        (activate): ReLU(inplace=True)
      )
    )
    (ill_ppm): PPM(
      (0): Sequential(
        (0): AdaptiveAvgPool2d(output_size=1)
        (1): ConvModule(
          (conv): Conv2d(64, 16, kernel_size=(1, 1), stride=(1, 1), bias=False)
          (bn): SyncBatchNorm(16, eps=1e-05, momentum=0.1, affine=True, track_running_stats=True)
          (activate): ReLU(inplace=True)
        )
      )
      (1): Sequential(
        (0): AdaptiveAvgPool2d(output_size=2)
        (1): ConvModule(
          (conv): Conv2d(64, 16, kernel_size=(1, 1), stride=(1, 1), bias=False)
          (bn): SyncBatchNorm(16, eps=1e-05, momentum=0.1, affine=True, track_running_stats=True)
          (activate): ReLU(inplace=True)
        )
      )
      (2): Sequential(
        (0): AdaptiveAvgPool2d(output_size=3)
        (1): ConvModule(
          (conv): Conv2d(64, 16, kernel_size=(1, 1), stride=(1, 1), bias=False)
          (bn): SyncBatchNorm(16, eps=1e-05, momentum=0.1, affine=True, track_running_stats=True)
          (activate): ReLU(inplace=True)
        )
      )
      (3): Sequential(
        (0): AdaptiveAvgPool2d(output_size=6)
        (1): ConvModule(
          (conv): Conv2d(64, 16, kernel_size=(1, 1), stride=(1, 1), bias=False)
          (bn): SyncBatchNorm(16, eps=1e-05, momentum=0.1, affine=True, track_running_stats=True)
          (activate): ReLU(inplace=True)
        )
      )
    )
    (ill_bottleneck): ConvModule(
      (conv): Conv2d(128, 512, kernel_size=(3, 3), stride=(1, 1), padding=(1, 1), bias=False)
      (bn): SyncBatchNorm(512, eps=1e-05, momentum=0.1, affine=True, track_running_stats=True)
      (activate): ReLU(inplace=True)
    )
    (conv_ill_seg): Conv2d(512, 19, kernel_size=(1, 1), stride=(1, 1))
    (mask_ill_layer): Sequential(
      (0): ConvModule(
        (conv): Conv2d(576, 64, kernel_size=(3, 3), stride=(1, 1), padding=(1, 1), bias=False)
        (bn): SyncBatchNorm(64, eps=1e-05, momentum=0.1, affine=True, track_running_stats=True)
        (activate): ReLU(inplace=True)
      )
      (1): Conv2d(64, 512, kernel_size=(1, 1), stride=(1, 1))
      (2): Sigmoid()
    )
    (conv_all_seg): Conv2d(512, 19, kernel_size=(1, 1), stride=(1, 1))
  )
  init_cfg={'type': 'Normal', 'std': 0.01, 'override': {'name': 'conv_seg'}}
  (disentangle_head): SODHead(
    (loss_retinex): PixelLoss(
      (creterion): MSELoss()
    )
    (loss_smooth): SmoothLoss()
    (stem): ConvModule(
      (padding_layer): ReflectionPad2d((3, 3, 3, 3))
      (conv): Conv2d(4, 32, kernel_size=(7, 7), stride=(1, 1), bias=False)
      (in): InstanceNorm2d(32, eps=1e-05, momentum=0.1, affine=False, track_running_stats=False)
      (activate): ReLU(inplace=True)
    )
    (downsample): Sequential(
      (0): ConvModule(
        (padding_layer): ReflectionPad2d((1, 1, 1, 1))
        (conv): Conv2d(32, 64, kernel_size=(3, 3), stride=(2, 2), bias=False)
        (in): InstanceNorm2d(64, eps=1e-05, momentum=0.1, affine=False, track_running_stats=False)
        (activate): ReLU(inplace=True)
      )
      (1): ConvModule(
        (padding_layer): ReflectionPad2d((1, 1, 1, 1))
        (conv): Conv2d(64, 128, kernel_size=(3, 3), stride=(2, 2), bias=False)
        (in): InstanceNorm2d(128, eps=1e-05, momentum=0.1, affine=False, track_running_stats=False)
        (activate): ReLU(inplace=True)
      )
    )
    (residual): Sequential(
      (0): ResidualBlock(
        (block): Sequential(
          (0): ConvModule(
            (padding_layer): ReflectionPad2d((1, 1, 1, 1))
            (conv): Conv2d(128, 128, kernel_size=(3, 3), stride=(1, 1), bias=False)
            (in): InstanceNorm2d(128, eps=1e-05, momentum=0.1, affine=False, track_running_stats=False)
            (activate): ReLU(inplace=True)
          )
          (1): ConvModule(
            (padding_layer): ReflectionPad2d((1, 1, 1, 1))
            (conv): Conv2d(128, 128, kernel_size=(3, 3), stride=(1, 1), bias=False)
            (in): InstanceNorm2d(128, eps=1e-05, momentum=0.1, affine=False, track_running_stats=False)
          )
        )
      )
      (1): ResidualBlock(
        (block): Sequential(
          (0): ConvModule(
            (padding_layer): ReflectionPad2d((1, 1, 1, 1))
            (conv): Conv2d(128, 128, kernel_size=(3, 3), stride=(1, 1), bias=False)
            (in): InstanceNorm2d(128, eps=1e-05, momentum=0.1, affine=False, track_running_stats=False)
            (activate): ReLU(inplace=True)
          )
          (1): ConvModule(
            (padding_layer): ReflectionPad2d((1, 1, 1, 1))
            (conv): Conv2d(128, 128, kernel_size=(3, 3), stride=(1, 1), bias=False)
            (in): InstanceNorm2d(128, eps=1e-05, momentum=0.1, affine=False, track_running_stats=False)
          )
        )
      )
    )
    (light_attention): LightAttention(
      (blocks): ModuleList(
        (0-1): 2 x SwinBlock(
          (norm1): LayerNorm((128,), eps=1e-05, elementwise_affine=True)
          (attn): ShiftWindowMSA(
            (w_msa): WindowMSA(
              (qkv): Linear(in_features=128, out_features=384, bias=True)
              (attn_drop): Dropout(p=0, inplace=False)
              (proj): Linear(in_features=128, out_features=128, bias=True)
              (proj_drop): Dropout(p=0, inplace=False)
              (softmax): Softmax(dim=-1)
            )
            (drop): DropPath()
          )
          (norm2): LayerNorm((128,), eps=1e-05, elementwise_affine=True)
          (ffn): FFN(
            (activate): GELU(approximate='none')
            (layers): Sequential(
              (0): Sequential(
                (0): Linear(in_features=128, out_features=512, bias=True)
                (1): GELU(approximate='none')
                (2): Dropout(p=0, inplace=False)
              )
              (1): Linear(in_features=512, out_features=128, bias=True)
              (2): Dropout(p=0, inplace=False)
            )
            (dropout_layer): DropPath()
          )
        )
      )
      (in_transform): ConvModule(
        (conv): Conv2d(128, 128, kernel_size=(1, 1), stride=(1, 1))
        (activate): GELU(approximate='none')
      )
      (out_transform): Sequential(
        (0): Linear(in_features=128, out_features=16, bias=True)
        (1): Sigmoid()
      )
      (down): MaxPool2d(kernel_size=2, stride=2, padding=0, dilation=1, ceil_mode=False)
      (up): UpsamplingBilinear2d(scale_factor=2.0, mode='bilinear')
    )
    (image_pool): Sequential(
      (0): AdaptiveAvgPool2d(output_size=1)
      (1): Conv2d(128, 32, kernel_size=(1, 1), stride=(1, 1))
      (2): ReLU(inplace=True)
    )
    (merge): ConvModule(
      (padding_layer): ReflectionPad2d((1, 1, 1, 1))
      (conv): Conv2d(176, 128, kernel_size=(3, 3), stride=(1, 1), bias=False)
      (in): InstanceNorm2d(128, eps=1e-05, momentum=0.1, affine=False, track_running_stats=False)
      (activate): ReLU(inplace=True)
    )
    (upsample_illumination): Sequential(
      (0): ConvModule(
        (padding_layer): ReflectionPad2d((1, 1, 1, 1))
        (conv): Conv2d(128, 64, kernel_size=(3, 3), stride=(1, 1), bias=False)
        (in): InstanceNorm2d(64, eps=1e-05, momentum=0.1, affine=False, track_running_stats=False)
        (activate): ReLU(inplace=True)
      )
      (1): Upsample(scale_factor=2.0, mode='bilinear')
      (2): ConvModule(
        (padding_layer): ReflectionPad2d((1, 1, 1, 1))
        (conv): Conv2d(64, 32, kernel_size=(3, 3), stride=(1, 1), bias=False)
        (in): InstanceNorm2d(32, eps=1e-05, momentum=0.1, affine=False, track_running_stats=False)
        (activate): ReLU(inplace=True)
      )
      (3): Upsample(scale_factor=2.0, mode='bilinear')
    )
    (upsample_reflectance): Sequential(
      (0): Upsample(scale_factor=2.0, mode='bilinear')
      (1): ConvModule(
        (padding_layer): ReflectionPad2d((1, 1, 1, 1))
        (conv): Conv2d(128, 64, kernel_size=(3, 3), stride=(1, 1), bias=False)
        (in): InstanceNorm2d(64, eps=1e-05, momentum=0.1, affine=False, track_running_stats=False)
        (activate): ReLU(inplace=True)
      )
      (2): Upsample(scale_factor=2.0, mode='bilinear')
      (3): ConvModule(
        (padding_layer): ReflectionPad2d((1, 1, 1, 1))
        (conv): Conv2d(64, 32, kernel_size=(3, 3), stride=(1, 1), bias=False)
        (in): InstanceNorm2d(32, eps=1e-05, momentum=0.1, affine=False, track_running_stats=False)
        (activate): ReLU(inplace=True)
      )
      (4): Conv2d(32, 32, kernel_size=(1, 1), stride=(1, 1))
    )
    (refine_reflectance): ConvModule(
      (padding_layer): ReflectionPad2d((1, 1, 1, 1))
      (conv): Conv2d(32, 32, kernel_size=(3, 3), stride=(1, 1), bias=False)
      (in): InstanceNorm2d(32, eps=1e-05, momentum=0.1, affine=False, track_running_stats=False)
      (activate): ReLU(inplace=True)
    )
    (reflectance_output): Sequential(
      (0): Conv2d(32, 3, kernel_size=(7, 7), stride=(1, 1), padding=(3, 3), padding_mode=reflect)
      (1): Tanh()
    )
    (illumination_output): Sequential(
      (0): Conv2d(32, 3, kernel_size=(7, 7), stride=(1, 1), padding=(3, 3), padding_mode=reflect)
      (1): Sigmoid()
    )
  )
  init_cfg={'type': 'Kaiming', 'override': {'type': 'Constant', 'layer': 'Conv2d', 'name': 'reflectance_output', 'val': 0.0, 'bias': 0.5}}
  (disentanlge_loss): PixelLoss(
    (creterion): L1Loss()
  )
)
2025-05-26 01:44:47,012 - mmseg - INFO - Loaded 2248 images
2025-05-26 01:44:47,038 - mmseg - INFO - Loaded 2248 images
…
